Navigation/checkpoint.pth (torch, 30393 bytes, 6 tensors)

fc1.weight f4 [64, 37]
00000000: 3d1e 97bd ee01 d3bb 83a3 4fbd 8be6 f6bd
00000010: e3cd 3ebc edb2 8e3d efd3 28bd 220c a03d
00000020: 9dd1 f13d 3f03 2f3d 46f4 6a3e 86ac c3be
00000030: 5b79 ffbe 8342 babe f682 c2bf f249 de3c
00000040: b6d7 3fbb 7a50 633d 9b2e 303d 56bb 913c
00000050: 42b2 6e3d ad34 c83d 1bc3 793d 678c 5b3d
00000060: 12ac 82bd 1826 d5bd 073f 8c3d 9646 a9bc
00000070: ec0f 993c 0188 d23d c035 3ebd 60ef 7bbc
00000080: 1a8b f0ba 6de2 953c ada8 c83d 66d2 19bb
00000090: e928 08bb 8da8 f73a 249b 1a3e ea90 ef3d
000000a0: cd48 0f3e 5443 a5bd 1bd6 183d 841f 38bc
000000b0: f066 27be 474f 47be 97d9 83be 6d5f a33d
000000c0: b3f7 e0bd 9ba0 8a3d 1904 e73d 3c69 f7bd
000000d0: 43cc 483e e28f 0b3b f60f 3cbc ce3d 07be
000000e0: f216 70bd 74a8 04be 80ad a2bd f69c f239
000000f0: 3ecc 62bc 82a5 263e dd7c cabb 4f03 013e
00000100: beac 1fbd 94d4 d6bd 0050 abbd 3b67 283e
00000110: 2b27 893e e4db 6d3c 9257 e6be 32b7 0abf
00000120: 29a8 f63c 6eb1 0bbc 8f3b 2c3e 05f6 8ebd
00000130: 7499 eb3c e4dd 593e 198a 3a3e 2d07 54be
00000140: b78e efbd 2caf ba3e 5d19 36be 00a7 98be
00000150: 7cf4 8bbd d91d f8bc 11e5 423d b219 8e3d
00000160: 9e79 103e a9f4 213b aa5f 7cbe bec3 b73d
00000170: 43d5 363e b065 2a3e dfcd 36be c43f afbd
00000180: ac3e 923d 15de d83b 7dcf 92bd 2da3 00be
00000190: a516 e73d abd8 713e 549f 22bc c99e a1be
000001a0: 62e0 09be 8aea 783c 8aca 3dbd 9799 d6be
000001b0: 93b8 cabc 9360 1f3d 0ed7 50bd 1e8d b43e
000001c0: 1436 34bf df22 153c 0364 32be 6140 71bf
000001d0: 107f 9c3c d37e 9d3d 7fcc 2abd 5bee 2ebe
000001e0: 74ad ac3d 7739 caba de75 7dbd e764 a73c
000001f0: 5c33 82bd e482 61be 24d6 17be 7914 d2bd
00000200: 7c6f 2fbd 0db3 07bd c156 14bd 3ae1 c73c
00000210: 5e29 e7bd 59ea f8bc 527d c03d 285e 363e
00000220: 2fed cc3d a062 ccbd a226 04bc 7944 c03d
00000230: af07 993e 6e8b 733e b9f5 753d 1e1a 0abe
00000240: 54d2 17be 429a 623c fb39 743c d440 09bc
00000250: 5ce3 83bd 289c 92be e08a e0bd 64ad 74be
00000260: ac4c 2dbe b964 483d fa2b 713d 35c0 10be
00000270: de9f 083e 8579 05be da7e 97bb f9bd ce3d
00000280: 0a62 0bbe 6f57 9abe b0fa dcbe 7c42 99be
00000290: 36e0 7e3e 4517 83bd 828a 05bf 1f81 843d
000002a0: a58d 9abc 93ed 56bd 41e2 94bd 800f 7abe
000002b0: 4a0e 9bbe 0c92 6ebe 3fdf adbe 9a0e 9b3e
000002c0: e483 453d 79bf adbd f202 893d 74f5 94be
000002d0: ba61 5a3c 58a5 973c 507f 1cbe b0c4 493e
000002e0: afd3 5dbd 8616 933b 168d a6bd 9749 2c3d
000002f0: 679d 2cbe 7719 273d 6aa5 133e aa8e 66bb
00000300: de82 d2bd 51fe 1ebd e7a8 663c fae4 81bc
00000310: 8b6a 83bd 843e 12bd 9b40 2ebe ecc2 dabd
00000320: f097 8e3d 8ee6 16be 853d 57bd ba4e a9be
00000330: ddcc 5fbe f5a7 2a3e bfd8 30be 29e2 2c3c
00000340: 7526 103e 3409 973d db44 bdbc ef61 6ebe
00000350: 4662 223d 2d61 563d 6b9a 0b3e caac 97bd
00000360: e161 87be 3881 5cbd a99d 853e 8bbf cd3e
00000370: 0fa0 98bd 0e6b 0e3d d0e4 203e 282e f33c
00000380: 3e56 a2bd 856c 0bbe 97a6 60be 6402 0bbc
00000390: 1a6b ccbd 2276 a1bb 4af5 503e d536 943e
000003a0: 28d1 ba3d 54db 8b3d db7e b13d cfcc ca3d
000003b0: 9cbf c73d 3413 7fbd 8348 d23c 42f3 693c
000003c0: cf25 303c 5158 19bd fc26 9fbd 1c2e cc3c
000003d0: ffae f3bb 07ad 8f3d 5516 8f3e 1443 603d
000003e0: c77d a6bd c739 94bc 2c47 dabd 72be f9ba
000003f0: 46c7 bd3e eeff ffbd 3688 5fbe c76a a6be
-0.07378814 -0.006439439 -0.050693046 -0.12055691 -0.011645767 0.06967721 -0.04121774 0.07814814
0.11807559 0.042727705 0.22944745 -0.38217562 -0.49897274 -0.3637887 -1.5196216 0.02713487
-0.002927286 0.05549667 0.043013196 0.017789524 0.05827547 0.09775672 0.060977083 0.053600695
-0.06380476 -0.104076564 0.06847959 -0.02066354 0.01868435 0.10279847 -0.04643798 -0.015376896
-0.0018352002 0.018296445 0.09797797 -0.0023471355 -0.0020776337 0.0018894837 0.15098244 0.11697562
0.13992615 -0.080694824 0.037313562 -0.011237983 -0.16347861 -0.19463836 -0.25751945 0.079771854
-0.10984745 0.06768914 0.112800784 -0.12080619 0.1960917 0.0021295478 -0.011478415 -0.1320717
-0.058615632 -0.12954885 -0.07943249 0.00046274782 -0.01384264 0.16274074 -0.0061794356 0.12598918
-0.0389831 -0.10489765 -0.08364868 0.1644563 0.26787695 0.014517758 -0.44988686 -0.54185784
0.030109482 -0.008526189 0.16819595 -0.06980518 0.028759696 0.21276051 0.18216743 -0.20705862
-0.116971426 0.3646177 -0.17783113 -0.2981491 -0.06833741 -0.03028767 0.047581736 0.06938495
0.14108893 0.002471248 -0.24645868 0.08972882 0.1785479 0.16640353 -0.17851971 -0.08557084
0.0714086 0.006618271 -0.071684815 -0.12562247 0.11283616 0.23617809 -0.009925682 -0.31566456
-0.13464502 0.015192637 -0.046335734 -0.41914055 -0.024746215 0.03891046 -0.050986342 0.35263914
-0.70395017 0.009102552 -0.17420964 -0.9423886 0.019103557 0.076902054 -0.04169893 -0.17083113
0.08431521 -0.0015428503 -0.061879985 0.020433856 -0.06357452 -0.22022587 -0.14827782 -0.10257811
-0.04283093 -0.03312974 -0.036215547 0.024399389 -0.11287187 -0.030385183 0.09398903 0.17809355
0.10006177 -0.09979749 -0.008065851 0.0938806 0.29888675 0.23783657 0.060048793 -0.13486525
-0.14826328 0.013830723 0.014906402 -0.008377273 -0.0643985 -0.28634763 -0.10963988 -0.23894268
-0.16923779 0.04892418 0.05887983 -0.14135821 0.13342234 -0.13034637 -0.004623276 0.10094828
-0.13611618 -0.30144832 -0.4316001 -0.29933536 0.24890217 -0.06400923 -0.5216447 0.064699404
-0.01886637 -0.052472662 -0.07269717 -0.24419975 -0.3028434 -0.232979 -0.33959386 0.30284578
0.048221484 -0.08483786 0.06690015 -0.29093516 0.013328964 0.01851146 -0.15282941 0.19703937
-0.054156955 0.004488769 -0.08132379 0.04206237 -0.16856919 0.04079577 0.14418569 -0.003518025
-0.10278867 -0.038816754 0.014078355 -0.015856255 -0.06416806 -0.03570415 -0.17016833 -0.1068171
0.069625735 -0.14736387 -0.052548904 -0.33067876 -0.21855493 0.16665633 -0.17270182 0.010551968
0.1407717 0.07374802 -0.023104122 -0.23279546 0.039644502 0.052338768 0.13633125 -0.07406004
-0.26441863 -0.05383417 0.26096848 0.40185198 -0.07452404 0.034770064 0.15712285 0.029685095
-0.07926606 -0.13615616 -0.21938549 -0.008484457 -0.099813655 -0.0049274126 0.2040607 0.28948084
0.09121925 0.06828943 0.08666774 0.099023454 0.097533435 -0.062274173 0.025669342 0.014279189
0.010751202 -0.03743774 -0.077711076 0.02492433 -0.0074366326 0.07015424 0.27946725 0.05475147
-0.08129459 -0.018093957 -0.10658106 -0.001905395 0.37066096 -0.124999866 -0.21829304 -0.3250334

fc1.bias f4 [64]
00000000: 30b0 0e3e b28c 9a3b c4b6 13be b929 34bd
00000010: e1a7 df3d 67ec bbbd 4b61 01bc 0f81 ee3c
00000020: 0833 ffbc da46 7abe 434b d33d 04f9 643e
00000030: 5b10 873c a472 c93d 080a 8abc 14e7 72bd
00000040: 49ba 383d 95c4 a2bd e3ef e63c 8108 2dbe
00000050: 9329 02be 0796 2b3d 7d29 f23c 3bf7 a1bd
00000060: 5799 62bd 9053 7a3e 8ed8 07bd 59d7 04be
00000070: a7be 283e e8fc c0bc 1e92 7cbd 3dce 8cbe
00000080: 6535 6a3e 188a 4a3c 8d57 2bbe 9cc8 293d
00000090: 01e4 71bd 6104 713d c025 66bd fc97 f1bd
000000a0: 5dea 00be 0920 55bc abf5 0cbe 8b79 103e
000000b0: 8a45 703d 14c6 cbbd 7b22 343d 08a7 37be
000000c0: 5a13 f0bd 94da 113c 06ca 10be 76e0 c03d
000000d0: af62 553d b78a 59bd 3bf8 f9bd 6028 9937
000000e0: 5909 e83d 41ac ec3c bd57 a2bd 2cbf 28be
000000f0: 837d 2f3d 1cc9 543c c043 dcbc 99b5 8d3c
0.13934398 0.004716479 -0.14425188 -0.043985102 0.10920692 -0.091759495 -0.007896732 0.029114274
-0.031152263 -0.2444109 0.103170894 0.22360617 0.016487291 0.09836319 -0.016850486 -0.059302405
0.04509953 -0.07947651 0.028190559 -0.16897775 -0.12711172 0.041891124 0.029560799 -0.079084836
-0.055322018 0.24445939 -0.033165507 -0.12972774 0.16478978 -0.023558095 -0.061662786 -0.27501097
0.22871931 0.012362026 -0.16732617 0.04145108 -0.059055332 0.058842067 -0.056188345 -0.11796567
-0.12589402 -0.013008126 -0.1376559 0.14108865 0.058660068 -0.0994989 0.043978196 -0.17934811
-0.11722441 0.008902211 -0.14139566 0.094178125 0.052096065 -0.053110804 -0.12205549 1.8257822e-05
0.11329908 0.02889073 -0.07926891 -0.16479176 0.042844307 0.012987401 -0.026887774 0.017298507

fc2.weight f4 [64, 64]
00000000: df9d 1dbd 1f14 df3d adad cb3d 09a4 09bd
00000010: fb19 493e 93c0 13bb 1e88 f9bd f36c 33bd
00000020: bd95 533d 0051 cd3c ce25 d5bd 506c a9be
00000030: e3ba ddbe 28cc f83d bcd8 e4be 099a 52bd
00000040: b500 103c 37e3 7d3d 8676 073e cfff 04bd
00000050: b392 fbbb 1af9 b1be 2c54 013d 7b39 b53d
00000060: 6f8c 3abd 914f 52be a382 9e3e 11e5 3cbe
00000070: 767b 193e c3d9 7bbc 51f3 bcbd ce83 3a3d
00000080: 8736 553e f9e9 403d 597a 7abe e094 f4bd
00000090: da7d 413e 8b5c 353e 2183 a63e 981a e7be
000000a0: 47b3 b8bd 2929 303e c2ce 5f3e d6a7 c3bd
000000b0: e7a9 0e3d 5b80 6fbe fbd3 43be 32f6 b6bd
000000c0: aeb6 8c3c 97a7 553c 2011 d7be 8711 24bd
000000d0: a6b2 a33d d61f 1c3e 96fa 4bbe eda5 2b3d
000000e0: 7def 85bc 4c17 03bd 24b9 7fbe 334b d13c
000000f0: 1e1e a53d cf6d aa3e 5184 eabc 1db8 0a3d
00000100: a1d1 6bbc 4dd9 e03d 8aba d7be 62ca 4c3d
00000110: d5ef ee3c a1aa 6e3d a9bf 14be 0f0b 14bd
00000120: 469d 97bd 9182 99be ffbd 923c 6e68 553e
00000130: 83fd 31be 5845 8d3d 6671 24be 99f4 1d3e
00000140: 0788 313e 266b 84be e2c0 89be 0014 47be
00000150: fc51 bfbd 6efe 413e 4b77 7f3e 20c7 54be
00000160: 91ee 0a3e 3f8a 8fbd e190 6dbe aaf5 3c3a
00000170: 4d8d 313e 2937 9f3c e91a 0abf c0b2 e1bd
00000180: 0bf7 c83e 4759 5a3e e187 b6bd b3d8 7ebe
00000190: b457 1cbe b661 a43e 8ff8 d4bd 7679 21bd
000001a0: 423a a5be 795a 91be 176a 833d d65e 50bc
000001b0: 67e4 56be d528 32be 2091 94bd 6fc8 0bbe
000001c0: aa82 b8bd d7de fc3d 9669 e9bc f77e 4c3d
000001d0: b05c 31be dcd8 863e 2ead 263c 9deb d73d
000001e0: eade bbbd b193 73be 0171 9b3d dbe8 aebc
000001f0: 184d 80bc 7b03 f7bd 6550 c03c 3a28 03be
00000200: 5038 223e 390c d73c 272a a4bd b427 f2bd
00000210: d65e 833e 1548 63bc 7c00 903e 43cc c13d
00000220: 3e0b 81bd af29 b9bd ef9a 0f3e 00de 89be
00000230: cb1f acbd 0358 b93e 2f01 8cbd 545c e8bb
00000240: 2cd1 bcbd a7b6 52bd b484 5fbc 7f15 26be
00000250: 1fa4 c33d ec7f 193c 7d46 a0be d022 1f3e
00000260: 7ae6 3bbe dfe4 583e 8579 6b3e 41eb 92bd
00000270: 1e0e 36be 3a34 623e 0699 333e 921b 3b3d
00000280: 73ec d7be c56c 11be f5b1 21bd a83c d03d
00000290: 364e eb3d 5cc3 98bc 11f5 583e 9399 53bd
000002a0: ff3e d03e 7e52 8fbd 29a7 02be 4fde 0cbc
000002b0: 141a 39bc 1b43 e2bc 53e1 2f3b bcd1 07bd
000002c0: c6c1 5a3e c87f 9ebe df92 633a aff4 c4bc
000002d0: ff62 09be e675 24bf dd6d dfbe 52a2 823d
000002e0: 5eea 703d 50e4 32bd f3e8 823e 3a2e 8a3b
000002f0: ecb2 8abd 648d 733e 2f5c 28be 2393 723d
00000300: eacf 5d3e f19d 94bc 8998 a63c 4f29 843b
00000310: 8e5c ca3d 8664 29be 6585 f3bd 1fd3 573c
00000320: 1c17 9abe e413 473d d106 4b3d 82a9 0dbd
00000330: 1516 763c 5a10 463d 418e 933e 2be8 5bbe
00000340: 498e 6abe 53d5 dcbc cfe7 ccbd f213 813e
00000350: 93be 263e e979 6abd 3f2f 67bd c24e 59bd
00000360: 16b0 a33d 8097 033e 505b 133e 181e dfbc
00000370: 472d 313d d011 1fbe 947a eb3d f5e7 093e
00000380: bccb 87bc 6137 19be 0f40 de3d 672e 9abe
00000390: 6521 88be dfe9 8e3d 07f6 ae3e 2872 27be
000003a0: 2a5b 113e 9962 623e be67 e83d f93d 653d
000003b0: 2439 b93c 6b18 a4bd cd2b 62be a5e0 bd3d
000003c0: 0ad0 2dbe 434b 23be cb6b b2bc 04d9 4c3c
000003d0: be9c 0f3e 545b 3fbe 3e0f ac3e f575 113e
000003e0: 5cd0 19bd 7100 44be 3a2d e73d 158a f73d
000003f0: 0815 3bbe d971 133e 479c dcbd 800d 39bd
-0.038480636 0.1089251 0.099452354 -0.0336037 0.19638817 -0.0022545203 -0.121841654 -0.043805074
0.051656473 0.025063038 -0.10407601 -0.33090448 -0.43306646 0.12148315 -0.44696605 -0.05141643
0.008789231 0.061984267 0.13228807 -0.03247052 -0.0076774 -0.34760362 0.031574413 0.08848854
-0.045544084 -0.20538165 0.30959043 -0.18446757 0.14988503 -0.015371743 -0.092260964 0.045535855
0.20821582 0.047098134 -0.24460734 -0.11942458 0.18895665 0.17711084 0.32521918 -0.45137477
-0.090185694 0.17203201 0.21856216 -0.095534965 0.03483 -0.23388807 -0.19123833 -0.08933677
0.017176952 0.013040445 -0.42005253 -0.040055778 0.07993059 0.1524652 -0.1991981 0.041906286
-0.016349548 -0.03200464 -0.2497297 0.025548553 0.08062385 0.33286902 -0.028627547 0.03386699
-0.014393241 0.10978947 -0.42134506 0.049997695 0.029167095 0.058268193 -0.14526238 -0.03614336
-0.074030444 -0.29982427 0.017912863 0.20840618 -0.17381863 0.06897992 -0.16058883 0.15425338
0.17337047 -0.25862998 -0.2690497 -0.19441223 -0.09341809 0.18944713 0.2494785 -0.20779085
0.13567568 -0.0700879 -0.23199798 0.00072082377 0.17339058 0.019435482 -0.5394731 -0.11020422
0.3925098 0.21323119 -0.089126356 -0.24887352 -0.15267831 0.32105798 -0.10398971 -0.039422475
-0.3227101 -0.28389338 0.064167194 -0.012717923 -0.20985566 -0.17398389 -0.07254243 -0.13650678
-0.09009297 0.12347191 -0.02849273 0.04992577 -0.17320514 0.26337326 0.010173125 0.105429865
-0.09173377 -0.23786809 0.07589913 -0.021351269 -0.015661761 -0.12061211 0.023475835 -0.12808314
0.15841794 0.026250945 -0.080158524 -0.11823979 0.25658292 -0.013872166 0.2812537 0.09462788
-0.063009724 -0.09041154 0.14023946 -0.26927185 -0.084045015 0.3619996 -0.06836163 -0.0070910845
-0.09219584 -0.051443722 -0.013642479 -0.16219138 0.09552788 0.009368878 -0.31303778 0.15540624
-0.18349639 0.21181057 0.22995575 -0.07173777 -0.17778823 0.22090235 0.17538843 0.04568059
-0.42172584 -0.14201649 -0.039476354 0.10167819 0.11489527 -0.018647842 0.21187235 -0.05166013
0.40673062 -0.06998156 -0.12759079 -0.008597924 -0.011297721 -0.027619889 0.0026837185 -0.033159003
0.21362981 -0.30956864 0.00086812483 -0.024042455 -0.1341667 -0.642424 -0.43638507 0.063786164
0.05881726 -0.043674767 0.2556835 0.0042169364 -0.06772408 0.23784405 -0.16441415 0.05922235
0.21661344 -0.018141719 0.020336406 0.0040332447 0.09880935 -0.16542253 -0.11890677 0.013172894
-0.30095756 0.048602954 0.049567048 -0.034585483 0.015019913 0.048355438 0.2881947 -0.21475284
-0.2290584 -0.02695719 -0.100051515 0.2521053 0.16283636 -0.05724517 -0.05644154 -0.053053625
0.0799257 0.12850761 0.14390302 -0.02723603 0.04325607 -0.15534139 0.11497989 0.13467391
-0.01657664 -0.14962532 0.10852062 -0.30113527 -0.26587978 0.06978201 0.3417208 -0.16352141
0.14194933 0.22107925 0.11347912 0.055967305 0.022610255 -0.0801247 -0.22087021 0.09271363
-0.16973892 -0.15946679 -0.021779915 0.012502912 0.14024636 -0.18687183 0.3360538 0.14205153
-0.037552223 -0.19140793 0.11287923 0.12086884 -0.18269742 0.14398898 -0.10771995 -0.04517889

fc2.bias f4 [64]
00000000: 2acc bebc 7ecb 3f3d ee5b bb3d c96e 58bd
00000010: ef44 a83d b867 0fbe 99e2 ecbd a71f 25bd
00000020: 75c9 893e 2e2f ed3e 378e d8bd e528 e33e
00000030: 16b3 ba3e 502f 0dbe 49fb f2bd b38f 2c3e
00000040: 811d 13bd e00f 42bd 5e54 01be 9055 203e
00000050: e3de 443e e1f0 023f 26fd 57be d4a5 c5bc
00000060: 3eb4 c6bd 4169 dbbd ad6b c93d 8b14 2cbd
00000070: d5b9 eabc 5b2a 0a3e 82dd 193e d60d 4a3a
00000080: 1372 91bd af51 883e ac85 b93d aaf4 933d
00000090: 027a 1d3c 1cc6 21be ddce 5e3e a86d eb3b
000000a0: aa84 32be 0155 063f cb6b 333e 389a 0bbe
000000b0: 94aa e83d 9741 03be 8446 f33c a4e7 28be
000000c0: ebd6 b73d ec83 303d 755b 17be 083b e23e
000000d0: 1cf6 13bb be0c f5bd e3fd 9e3e 3413 9fbd
000000e0: c94e edbd d64e 1dbe b102 ce3d 8acf 8e3c
000000f0: e3e9 c63d 52af 953e 5af6 263e 5774 00bd
-0.023290712 0.046824925 0.091483936 -0.052840028 0.08216273 -0.1400441 -0.115666576 -0.04031339
0.26911512 0.46325058 -0.10574 0.44367138 0.36464757 -0.1378758 -0.11864335 0.16851692
-0.03591681 -0.04737842 -0.1262984 0.1565764 0.1922565 0.511488 -0.21092662 -0.024126925
-0.09702347 -0.10713435 0.09834991 -0.04201178 -0.028653065 0.1349272 0.15025905 0.000770775
-0.07101836 0.2662482 0.09058699 0.072244 0.009611608 -0.15798229 0.217586 0.007184703
-0.1743342 0.52473456 0.17521589 -0.13633049 0.1136066 -0.1281799 0.02969671 -0.16494614
0.08976539 0.04309456 -0.14780982 0.44185662 -0.0022577113 -0.11965321 0.31053075 -0.077673346
-0.11587293 -0.15362105 0.10059107 0.017432947 0.09712579 0.2923532 0.16304913 -0.03136095

fc3.weight f4 [4, 64]
00000000: 1e98 0ebf 29eb 163e 8e21 913e 0de1 74be
00000010: 7284 973e fe98 403e b001 b13e 5d34 6fbe
00000020: bd0b f83d be08 0f3e ac97 9bbe 48cc 443e
00000030: 93c8 0e3e 8fb9 88be 3050 1cbd 509e 0bbe
00000040: 017c 80bd 8052 093e 6e7e e4bd 2969 2a3e
00000050: 6272 7a3e 52bf fb3d 90bc 20be 381b 783c
00000060: 5182 f7ba 66d2 b2bd 94d2 3e3d 8c35 41be
00000070: 906c 0b3e b399 813e d81d 4e3d 6beb 1e3e
00000080: 2229 d6bd 705e 363e 7139 253e b8b7 623d
00000090: dc41 db3e 106a 49be 7f91 5f3e 2a69 433e
000000a0: 0f15 28be d58a 1a3e 3497 d63e 9f68 193d
000000b0: 70c3 303e 5f31 5ebd 4932 913d 67ef f53d
000000c0: 3c61 1c3e 3d3b 763e 79e0 15bf e95a 253e
000000d0: 4f62 7c3e 7e5a a1bd 9caf 513e fa51 b03e
000000e0: e3ac 35be bcf8 9c3d e598 413e 48fa 91bd
000000f0: 427d e53e af1e 343e 7cf1 7abd 80ca 913d
00000100: c901 b23d 34b2 373e 7b4f 903e 33c9 aabd
00000110: d877 ef3e dccc 743e fee7 d4bd 5a70 aebe
00000120: 2ea1 d73d cc96 1e3e f01a debd 87ec 1d3e
00000130: 165e 593d 5615 8a3d bfe9 e0bb daa4 003d
00000140: 8afd d1bd 9c3d 743e 9940 03be 241b 3c3e
00000150: aa68 7a3e 60e5 5d3e fac6 1cbe ff2e 39bc
00000160: 9745 ddbc 8074 61bd 0aa5 243e 3038 d4be
00000170: 9142 593d 252b c73d 8009 be3e db19 223e
00000180: 6480 f1bd 9ab9 a23d a672 433e 3d25 b5bd
00000190: f164 903e 2f84 fabd b867 5d3e 3a78 0e3f
000001a0: dd43 babc b767 293e baa7 913e 84df f5bc
000001b0: c4b2 5f3e 3fcf 37be b865 0d3e 8d18 a1bc
000001c0: 6568 403e 42db 323d 57e8 cebd 68c2 ef3d
000001d0: 536b 9a3e 3d6f da3d 1c9e 2b3e 5720 d83e
000001e0: b123 3abe 1fe6 e0bd 8685 7c3e 79c7 c0bd
000001f0: a3fd 6d3e 98a7 4b3d 7c8b 34ba 986f 363e
00000200: a961 6ebe 30aa 2a3e 5315 bc3e b6cd acbe
00000210: 63ef e63e e6ee 33be 3bb9 cf3e 6d29 23bd
00000220: 3655 173d 6625 143e df04 febd a26c 5e3e
00000230: 7cb0 0c3e 5591 8fbe 2e6a 44bd 175f 303e
00000240: c545 0e3d 71ef e13e ffff b6be b0f7 b73d
00000250: c64b 3c3e cc7a 593e b29b 94be 7ade d53e
00000260: d7d9 b13e ee10 61be 612e ae3e 5a2c 873e
00000270: afa0 b53e 4708 b83e 35a1 483c 9e0e 7d3d
00000280: 8178 0fbf dab1 313d 2585 393e 4d6c 5b3e
00000290: d9d7 103e ef32 c9bd fd96 003e a637 e7bd
000002a0: 147d a73e 32e8 343e cdf8 9e3e 84c1 9cbd
000002b0: 9e9c 9b3d ab1d 31be a5e1 273e a9dc 003c
000002c0: e1f8 d33e 6927 b9bb 8511 cfbd e116 6b3e
000002d0: 6c1e 5c3e 6fdd 533e 6b40 493e 7e39 023e
000002e0: e815 46be e08c cebd 6e96 b8bd cc41 85be
000002f0: 35b0 513e 09d6 053e 15d3 493e 9766 963d
00000300: 07b3 debd 0bfd 9d3e 20e2 333e 0a66 c7bd
00000310: de18 08be 4f7d 223f 694e 21bc 8c43 61bd
00000320: 465d 073e 7be8 383e 5cad c33d 0e65 e03d
00000330: c64f 0a3e 5862 cd3d 975f 433d 5827 6a3d
00000340: ab68 c63d 3ff7 c9bd e988 adbc 644e 6a3e
00000350: 4547 4b3e 3fdb 6a3e 0566 60be 4adc 8e3e
00000360: 0698 613d 8429 17be f6ed 94bc 2396 92be
00000370: eb74 2ebe c6df fd3d d026 4f3e 4740 2e3d
00000380: 0089 8ebe bd41 303e 5f82 c33c d93c c53e
00000390: 2337 e73d c123 20be 0bb0 383e a4fe f13e
000003a0: af7d d9be 5c3d 513e efe5 a53e 000b 91be
000003b0: bc9b 913e 6a4c f5bd 50bf 053e 215d f33b
000003c0: df46 533e 8db6 8bbc c7ab 703d d175 3e3e
000003d0: b06a 133d 22f1 793d b175 1b3e d0c4 0d3f
000003e0: 6136 adbd 7dae 99bd 436c 2a3c 9720 f4be
000003f0: 9294 c43e 92e3 933d 869e c53d 678c d33e
-0.5570086 0.14738144 0.28345913 -0.23913975 0.29593235 0.18808362 0.345716 -0.23359819
0.12111614 0.13968179 -0.30389154 0.19218552 0.139437 -0.2670407 -0.03816241 -0.1363461
-0.06273652 0.13410378 -0.11156927 0.16641678 0.24457696 0.12292351 -0.15696931 0.015143208
-0.0018883442 -0.087315366 0.04658754 -0.18868083 0.13615632 0.25312576 0.05032143 0.15519492
-0.10457064 0.17809463 0.16135193 0.05535099 0.42823684 -0.19669366 0.21832846 0.19083086
-0.16414283 0.15092023 0.41912234 0.03745329 0.17262053 -0.054246303 0.07089669 0.12008553
0.15271467 0.24046035 -0.58545643 0.1614796 0.24646877 -0.07878588 0.20477146 0.34437543
-0.17741732 0.0766463 0.18905981 -0.071278155 0.44822127 0.1758983 -0.061265454 0.07118702
0.08691747 0.17939073 0.2818564 -0.08339157 0.4677112 0.23906273 -0.103958115 -0.34070092
0.105287895 0.15487212 -0.10844982 0.1542226 0.053068243 0.06742351 -0.006863802 0.031407215
-0.10253437 0.23851627 -0.12817611 0.18369728 0.24453989 0.21669531 -0.15310279 -0.011302709
-0.027010722 -0.055042744 0.16078582 -0.41449118 0.053042 0.09725026 0.37116623 0.15830176
-0.11792067 0.07945557 0.19086704 -0.08844993 0.28202012 -0.12232243 0.21621597 0.556522
-0.022737438 0.1654347 0.28448278 -0.030013807 0.21845537 -0.17950152 0.13808334 -0.019665027
0.18789823 0.04366613 -0.10102909 0.11707002 0.30160007 0.10665748 0.16759533 0.42212173
-0.18177678 -0.10981392 0.2466031 -0.094130464 0.23241286 0.049720377 -0.000688724 0.17816007
-0.23279442 0.16666484 0.3673502 -0.33750695 0.45104513 -0.17571601 0.40571007 -0.03983443
0.036946498 0.14467391 -0.12403273 0.21721128 0.13739198 -0.28040567 -0.047952823 0.17223774
0.034734506 0.44127992 -0.35742185 0.089827895 0.1838828 0.2123825 -0.29025036 0.417713
0.3473651 -0.21979114 0.3401976 0.26401025 0.35474154 0.35943815 0.012245466 0.06178152
-0.5604325 0.043382503 0.18117197 0.21428032 0.1414484 -0.09824168 0.12557597 -0.11289911
0.32712615 0.176667 0.31049195 -0.07654098 0.07598232 -0.17296474 0.1639467 0.0078651095
0.41400817 -0.00565045 -0.101107635 0.22957946 0.2149598 0.20689939 0.1965348 0.12717244
-0.19344294 -0.100854635 -0.09013067 -0.26026762 0.20477374 0.13069929 0.19709428 0.07343786
-0.108739905 0.3085712 0.17566729 -0.09736259 -0.13290736 0.63472456 -0.009845355 -0.05499606
0.13219175 0.18057434 0.0955455 0.10956775 0.13506994 0.10028523 0.047698583 0.057166427
0.096879326 -0.098616116 -0.021183448 0.22881466 0.19851406 0.22935198 -0.21913917 0.27902442
0.05507662 -0.1476193 -0.018179875 -0.2863017 -0.17036788 0.12396197 0.2022965 0.04254177
-0.27838898 0.17212577 0.023865877 0.38522986 0.11289813 -0.15638639 0.18035905 0.47264588
-0.424787 0.20433563 0.32401988 -0.28328705 0.28439128 -0.119774655 0.13061261 0.0074268733
0.20632504 -0.01705482 0.05875757 0.18599631 0.035990417 0.061020978 0.15181614 0.5537844
-0.084576376 -0.07503984 0.010401788 -0.47681114 0.383946 0.0722114 0.096493766 0.41318056

fc3.bias f4 [4]
00000000: 5120 a53e 022f 963e f85f 363e 56ef 433e
0.32251218 0.2933274 0.17810047 0.19134268
