LunarLander/saved-models/checkpoint.pth (torch, 22969 bytes, 6 tensors)

fc1.weight f4 [64, 8]
0	0x3eb6ba60	0.35689068
1	0xbd18eb6d	-0.037333895
2	0xbf3af0e2	-0.7302381
3	0x3f208030	0.626956
4	0x3f69ae30	0.91281414
5	0x3e2bef0a	0.16790405
6	0x3d5a62ed	0.053317
7	0x3ee54f8e	0.44787258
8	0x3fab4ccf	1.3382815
9	0xbf238a83	-0.6388323
10	0x3f48e6d4	0.78477216
11	0xbf70747c	-0.9392774
12	0xbef02ed1	-0.46910718
13	0xbf6f1c25	-0.9340232
14	0xbf142c22	-0.5787984
15	0x3e848091	0.25879338
16	0x3ec0072b	0.3750547
17	0x3edf7f14	0.4365164
18	0x3e27094c	0.1631214
19	0xbf3b5166	-0.7317108
20	0x3f07ba76	0.5301889
21	0x3e3959d3	0.18100671
22	0x3dd65c67	0.10466843
23	0x3ea51eb8	0.3225
24	0x3ef88fb3	0.48547134
25	0xbf5dea1f	-0.86685365
26	0x3f8a9df6	1.0829456
27	0xbd16b1b0	-0.03679055
28	0xbfa75aa0	-1.3074532
29	0xbe88154d	-0.2657875
30	0xbe248c29	-0.16069092
31	0x3e96e0fc	0.29468524
32	0x3e88d359	0.26723745
33	0x3e1a0e0c	0.15044421
34	0x3deb9a5e	0.115040526
35	0xbe010cee	-0.12602589
36	0xbec4406c	-0.383304
37	0x3d47afd8	0.048751682
38	0x3e3033f9	0.17207326
39	0x3ebe17a9	0.37127426
40	0x3ddc8902	0.1076832
41	0xbe46f43e	-0.19429109
42	0x3deffaea	0.1171778
43	0xbf1f3a29	-0.6219812
44	0xbf0aa223	-0.5415365
45	0xbea9f5c1	-0.33195308
46	0x3e9329aa	0.28742725
47	0x3e93cabc	0.28865612
48	0xbe826f83	-0.25475702
49	0x3da09e93	0.07842746
50	0x3e3dffaf	0.18554567
51	0xbd9c9551	-0.07645667
52	0x3eac1125	0.3360683
53	0x3f0c43b2	0.54790795
54	0x3edd91e9	0.43275383
55	0xbe8c9406	-0.27456683
56	0x3f476d05	0.77900726
57	0x3e98347b	0.2972754
58	0xbeb6731b	-0.35634694
59	0xbf8737fa	-1.0563958
60	0x3ef42f43	0.47692308
61	0x3ee90d6d	0.45518056
62	0xbe3c3fc2	-0.18383697
63	0x3dd00dae	0.10158859
64	0x3f5a99ac	0.85390735
65	0xbec42427	-0.38308832
66	0xbed9ff28	-0.4257748
67	0xbd4e6f56	-0.050399147
68	0xbf25732e	-0.64628875
69	0x3f08ac25	0.5338767
70	0xbe939122	-0.28821665
71	0xbf727317	-0.94706863
72	0x3f19834c	0.5996597
73	0x3e3c378c	0.18380564
74	0xbe848cf8	-0.258888
75	0xbe227b25	-0.15867288
76	0xbf89d5c1	-1.0768358
77	0xbf4dbc50	-0.8036547
78	0xbeff2316	-0.49831456
79	0x3ed25663	0.41081533
80	0xbe5a9fd9	-0.2135004
81	0xbce85019	-0.028358506
82	0x3f4c8b7e	0.7990035
83	0xc045b6f5	-3.0892918
84	0x3e43cd23	0.19121222
85	0xbd857dd1	-0.06518138
86	0x3e395a2c	0.18100804
87	0x3e657bbc	0.22410482
88	0x3e83dff9	0.25756815
89	0xbf11745e	-0.5681819
90	0x3dc56743	0.09638836
91	0xbf344cb2	-0.7042953
92	0x3f16147a	0.58624995
93	0x3f2d15ca	0.6761137
94	0xbf3f5948	-0.7474561
95	0xbf2ca2af	-0.67435735
96	0xbd923339	-0.07138676
97	0xbeead219	-0.45863417
98	0xbfcc7252	-1.5972388
99	0x3fc4b30c	1.5367141
100	0x3f536e3b	0.82590073
101	0xbcee835e	-0.029115375
102	0x3ea61ff6	0.3244626
103	0x3e572ba1	0.21012737
104	0xbf4fb3d6	-0.8113378
105	0xbf14c844	-0.5811808
106	0xbe736c59	-0.237718
107	0xbf96a6a9	-1.1769611
108	0x3f5a296b	0.8521945
109	0x3e3a3f8a	0.181883
110	0x3e6a3a92	0.22873905
111	0x3e20642c	0.15663213
112	0x3ebd8433	0.37014922
113	0x3f89b9ec	1.0759864
114	0x400ccfd7	2.2001855
115	0xbfe0a52f	-1.755041
116	0xbf7a0018	-0.97656393
117	0xbe23de38	-0.16002738
118	0xbd052f8b	-0.032516044
119	0x3ec57bd1	0.38571027
120	0xbeaee88b	-0.3416179
121	0x3f3169a6	0.6930183
122	0xbf3267d7	-0.696897
123	0xbfdbde46	-1.7177207
124	0xbf5a9431	-0.8538237
125	0x3bf3b90f	0.007437832
126	0xbd729d6c	-0.05923216
127	0xbf364b11	-0.7120829
128	0xbd2f2922	-0.042763837
129	0x3dddc5dd	0.10828755
130	0xbe866bc9	-0.2625411
131	0xbd5b8e49	-0.05360249
132	0xbf0260cb	-0.50928944
133	0xbf1f824a	-0.6230818
134	0x3dd9d160	0.10635638
135	0x3e9b2087	0.30298254
136	0x3e8adb90	0.27120638
137	0xbe9cb30b	-0.3060535
138	0xbf88a9a3	-1.0676769
139	0x3fdf9d39	1.7469856
140	0xbcca173b	-0.02466928
141	0x3e499cd4	0.19688731
142	0x3f050416	0.5195936
143	0xbdb68f89	-0.08914096
144	0xbf73cfdb	-0.9523904
145	0xbe79143e	-0.24324128
146	0x3e3c9bb4	0.18418771
147	0xbe1a64e7	-0.15077554
148	0xbf85c446	-1.0450523
149	0xbf35271d	-0.7076281
150	0xbec6a3c8	-0.3879683
151	0x3e29357b	0.16524307
152	0xbf8724a0	-1.0558052
153	0xbe0b1e09	-0.13585676
154	0x3fe12c53	1.7591652
155	0xbfb695a6	-1.4264419
156	0x3faed833	1.3659729
157	0xbe149a17	-0.14511906
158	0x3d8e8cfb	0.06960484
159	0xbd528c05	-0.051403064
160	0xbf64e76c	-0.8941562
161	0xbf01e231	-0.50735766
162	0xbf254ff9	-0.64575154
163	0xbf89179b	-1.0710329
164	0x3f382bce	0.7194184
165	0x3ee2fe88	0.44334817
166	0x3e707e50	0.23485684
167	0xbbbde846	-0.0057955114
168	0x3e11dbda	0.14244023
169	0xbf8f9329	-1.1216785
170	0x3feeee44	1.8666463
171	0xbf999a9c	-1.2000308
172	0xbf331ae5	-0.6996291
173	0xbd57dafe	-0.05269908
174	0x3e28dac8	0.16489708
175	0x3e944eb1	0.28966287
176	0x3c284fe4	0.010272954
177	0xbe673240	-0.22577763
178	0x3ea596d1	0.32341626
179	0xbcb9f6b0	-0.022700638
180	0xbdc8ee07	-0.09811025
181	0xbeacda73	-0.33760414
182	0x3e955f22	0.29174143
183	0x3ea072e9	0.3133767
184	0x3e3ba1db	0.18323462
185	0x3d52eb67	0.05149403
186	0x3e8e0c56	0.27743787
187	0x3e570c0e	0.21000692
188	0xbf811750	-1.008524
189	0x3de99e93	0.11407199
190	0x3ebd7db9	0.3700998
191	0x3e84a92b	0.25910315
192	0x3edb3aeb	0.42818388
193	0xbd979f42	-0.07403423
194	0xbfb47b0f	-1.4100055
195	0xbeea71e5	-0.4579002
196	0xbe3a919e	-0.18219611
197	0xbe47e748	-0.1952182
198	0xbf177c84	-0.5917437
199	0x3d217178	0.039414853
200	0x3ecfffad	0.40624753
201	0xbd478c6c	-0.0487179
202	0xbf0ecea5	-0.55784065
203	0x3e6d32c8	0.23163903
204	0x3f331758	0.69957495
205	0x3e9e1e70	0.30882597
206	0xb9050861	-0.0001268699
207	0x3ed80883	0.42193994
208	0x3f01ef0a	0.5075537
209	0xbe1aa4f6	-0.1510199
210	0xbe331b77	-0.17490946
211	0x3d88681e	0.06660484
212	0xbec47354	-0.38369238
213	0x3d11d984	0.03560783
214	0x3e91c4cb	0.28470454
215	0x3e15df6b	0.14636008
216	0x3f42834e	0.75981605
217	0xbe48babd	-0.19602485
218	0xbe9ca7ae	-0.3059668
219	0xbf1c33bd	-0.61016446
220	0xbd038274	-0.03210683
221	0x3f2186d3	0.6309635
222	0x3e59299e	0.21207282
223	0xbf46be63	-0.7763426
224	0x3e815ef9	0.2526777
225	0x3facad9d	1.3490483
226	0xbeadcb20	-0.33944035
227	0xbfa806cf	-1.3127078
228	0xbec54b76	-0.38534135
229	0xbe59b052	-0.21258667
230	0x3d509775	0.05092569
231	0x3ee7fa8b	0.45308337
232	0xbe81fcdd	-0.25388232
233	0x3e9a6649	0.30156162
234	0xbe41e447	-0.18934737
235	0x3ea474e0	0.3212042
236	0x3f1b1d8f	0.6059198
237	0xbfc72b6b	-1.5560125
238	0xbd2dc235	-0.04242154
239	0x3dab0aa3	0.08351638
240	0xbeafe579	-0.3435476
241	0x3fd30c7f	1.6488189
242	0x3bc85b40	0.0061143935
243	0x3f2172f9	0.6306606
244	0x3f7ffbb3	0.9999344
245	0xbf8a18ef	-1.0788859
246	0xbd9e8065	-0.07739333
247	0xbe1392b4	-0.14411432
248	0xbe2bfc74	-0.16795522
249	0x3e99c753	0.30034885
250	0xbfa95985	-1.3230444
251	0xbe19470f	-0.14968513
252	0x3fa02a4e	1.251291
253	0x3e0fddc3	0.14049439
254	0xbd836bc7	-0.06417041
255	0xbd27a9a8	-0.04093328

fc1.bias f4 [64]
0	0xbe9a0166	-0.30079192
1	0xbefafa56	-0.49019116
2	0x3d09a48a	0.033604182
3	0xbda8e9af	-0.082476966
4	0xbe5479f9	-0.20749654
5	0x3cedd30f	0.029031305
6	0xbcf6733c	-0.030084245
7	0x3d328188	0.043580562
8	0xbd011d8b	-0.031522315
9	0x3ddbd2f5	0.10733596
10	0x3d7a8ac5	0.061167497
11	0xbe305fcb	-0.17224042
12	0xbe929bc7	-0.28634474
13	0xbee6619f	-0.44996354
14	0x3f33e944	0.7027781
15	0x3f1ca1b0	0.61184216
16	0xbdf9068c	-0.12159452
17	0xbeb67d0d	-0.3564228
18	0x3fa8b977	1.3181599
19	0x3e6d858b	0.23195474
20	0xbea9fb6e	-0.33199638
21	0xbee3826e	-0.44435447
22	0xbe7ce77f	-0.24697684
23	0xbe17e3c0	-0.14832973
24	0x3e044afa	0.12919226
25	0xbe82dc9b	-0.25558934
26	0xbe252995	-0.16129144
27	0xbed40ef8	-0.4141767
28	0x3f8edb1e	1.1160619
29	0x3f444b19	0.7667709
30	0xbe5feaf2	-0.21866968
31	0x3dd08f46	0.10183577
32	0x3d80ff4e	0.062986955
33	0x3f002440	0.50055313
34	0xbc410f40	-0.011783421
35	0xbe81ef50	-0.25377893
36	0xbebed212	-0.37269646
37	0x3e9d4409	0.3071597
38	0xbeabbe97	-0.33543846
39	0xbef6b4b7	-0.4818475
40	0x3fb09ba9	1.3797504
41	0xbed6ae52	-0.4192987
42	0x3dadd8e3	0.084886335
43	0xbca21b5f	-0.019788442
44	0x3de08f91	0.10964883
45	0xbdae9479	-0.08524413
46	0x3f6c1074	0.92212605
47	0xbe651abd	-0.22373481
48	0x3d5b0ec4	0.05348088
49	0xbe09eb59	-0.13468684
50	0x3e7d9a69	0.24765934
51	0x3f19c4d1	0.60065943
52	0x3ea346d3	0.31889972
53	0xbda66505	-0.08124737
54	0xbf13c8fe	-0.57728565
55	0x3e17d587	0.14827548
56	0xbc2a669f	-0.010400443
57	0x3f3d80e2	0.74024785
58	0xbdafcc1a	-0.08583851
59	0x3dcfe66a	0.1015137
60	0xbcca6436	-0.024705987
61	0xbe163939	-0.14670266
62	0x3ea62d41	0.324564
63	0xbc8d833f	-0.017274497

fc2.weight f4 [64, 64]
0	0xbedf9b8c	-0.4367336
1	0x3f09cadb	0.5382516
2	0xbf085f22	-0.5327016
3	0x3ef761bb	0.4831675
4	0x3e992c48	0.29916596
5	0xbdab1d7e	-0.083552346
6	0x3dbf0386	0.09326844
7	0x3d176d20	0.036969304
8	0xbfa04272	-1.2520278
9	0x3f088ecf	0.5334291
10	0x3bdc73e9	0.0067276848
11	0x3ec57781	0.38567737
12	0xc0967d08	-4.7027626
13	0xbf099630	-0.5374479
14	0x3e971f36	0.29516
15	0x3f3c4ae1	0.73551756
16	0xbe669c46	-0.22520551
17	0xc0972e02	-4.724366
18	0x3f5d292a	0.86390936
19	0xbe787773	-0.24264316
20	0xbfe7908e	-1.809099
21	0xbe985124	-0.29749405
22	0xbdda6892	-0.106644765
23	0xbef619b1	-0.48066476
24	0xbf571a46	-0.84024465
25	0xbedb04aa	-0.42776996
26	0xbf019750	-0.5062151
27	0xbfb4ea7f	-1.4134063
28	0x3d70e5fb	0.058813076
29	0x3cfa2119	0.03053336
30	0xbd896d53	-0.06710305
31	0xbd99f4e8	-0.07517415
32	0xbf790a16	-0.97281015
33	0xbf596ada	-0.8492867
34	0xbeb538b1	-0.35394815
35	0xbf1c917c	-0.6115949
36	0xbf562cf3	-0.8366234
37	0xbf96f9fe	-1.1795042
38	0x3d359d30	0.04433936
39	0x3fd72acf	1.6809939
40	0xbec11d79	-0.37717798
41	0xbe8fb252	-0.28065735
42	0x3afa41fb	0.001909315
43	0x3b579220	0.0032893494
44	0x3ee6bd52	0.45066315
45	0xbeb28e63	-0.34874257
46	0x3f27ec5a	0.6559502
47	0xbfa5e2f7	-1.2959889
48	0x3f183b09	0.5946508
49	0xc01a6561	-2.4124377
50	0x3dfdd1d2	0.12393536
51	0xbaa0d5ed	-0.0012270786
52	0xc0002e16	-2.0028129
53	0xbe5d7715	-0.21627457
54	0xbef2cfef	-0.47424266
55	0xbefa5e33	-0.48899993
56	0xbd955ed4	-0.07293478
57	0x3f28f231	0.65994555
58	0xbefb14cf	-0.49039313
59	0x3ed09191	0.40736058
60	0xbfb3efa5	-1.4057509
61	0xbebde520	-0.3708887
62	0xc0166446	-2.3498702
63	0xbe745a74	-0.2386263
64	0xbe0034d9	-0.1252016
65	0x3c92e8e0	0.01793331
66	0xbc50230f	-0.012703671
67	0xbc664c54	-0.014056284
68	0xbe086788	-0.13320744
69	0x3da6a3d1	0.08136714
70	0xbde5b374	-0.112158686
71	0x3d8ef7f3	0.06980886
72	0xbe0ed7ab	-0.13949458
73	0xbd211fdb	-0.03933702
74	0x3d33392c	0.043755695
75	0xbd99dd1a	-0.07512875
76	0x3d4c1b88	0.049830943
77	0xbe0569eb	-0.13028686
78	0xbe147cd8	-0.14500749
79	0xbd66dee0	-0.056364894
80	0x3b8dd8bf	0.0043288167
81	0x3d97b754	0.07408014
82	0xbdaf79e3	-0.0856817
83	0x3bad1f92	0.0052833045
84	0xbd5b4330	-0.053530872
85	0xbd6d91e3	-0.058000457
86	0x3d5cac7e	0.05387544
87	0xbdff0676	-0.12452404
88	0x3b3020c4	0.0026874999
89	0x3da42059	0.08013982
90	0xbd2784e6	-0.040898226
91	0x3d877478	0.066140115
92	0xbda27509	-0.07932479
93	0x3d7b334d	0.06132822
94	0xbe1ae85c	-0.151277
95	0xbd6fc3e8	-0.05853644
96	0xbda5fda8	-0.08105022
97	0xbc867cb0	-0.016416878
98	0x3b0a0e48	0.0021065641
99	0x3d921806	0.07133488
100	0xbd6fe3b3	-0.05856676
101	0xbd04f9df	-0.03246486
102	0x3daf4fca	0.085601404
103	0xbd0a8890	-0.033821642
104	0x3d5a2e43	0.053266775
105	0xbdeba8f7	-0.11506837
106	0xbd5dfc8c	-0.054195926
107	0xbcea311e	-0.028587874
108	0x3cf3d66c	0.02976533
109	0x3d3adf6a	0.04562322
110	0xbca24ed0	-0.019812971
111	0xbe016d06	-0.12639245
112	0x3d53f696	0.051748835
113	0xbb03c769	-0.0020107871
114	0x3c9725f5	0.018450717
115	0xbdf61e7e	-0.12017535
116	0x3d476b59	0.04868636
117	0x3db6a2f5	0.089178
118	0xbca18372	-0.019715998
119	0xbdef1dcc	-0.11675605
120	0x3d18ef90	0.03733784
121	0xbdf9c1b0	-0.12195146
122	0x3bbe9052	0.005815544
123	0xbc01615f	-0.00789675
124	0xbdaa7634	-0.08323327
125	0x3ce27513	0.027643716
126	0xbe0e23e3	-0.13880877
127	0xbcb6b621	-0.022303643
128	0xbdd257b5	-0.10270635
129	0x3f98a68f	1.192583
130	0xbea517d7	-0.3224475
131	0x3f53bd87	0.8271107
132	0x3e55c3ba	0.20875445
133	0x3ebfb582	0.37443167
134	0xbed01a64	-0.40645134
135	0x3d69470e	0.05695253
136	0xbd84d7ea	-0.06486495
137	0x3f5c1c62	0.8598081
138	0x3dc5f01b	0.09664937
139	0x3f827747	1.019265
140	0xbd9172ea	-0.07101996
141	0x3f1a9d7a	0.6039654
142	0x3e9183d2	0.28420883
143	0x3ef3468b	0.47514758
144	0x3f1e0ee6	0.61741483
145	0x3e91f956	0.2851054
146	0x3ec569bf	0.3855724
147	0xbe7e0afa	-0.24808875
148	0x3ebe43ca	0.37161094
149	0x3fff9c8e	1.9969652
150	0x3ebe5fbc	0.37182415
151	0x3e6b787e	0.22995183
152	0xbf92112b	-1.1411489
153	0xbcba2576	-0.02272294
154	0x3eabbb01	0.3354111
155	0xbd7fd7dc	-0.06246172
156	0x3e191f4c	0.14953345
157	0x3ed4962c	0.41520822
158	0xbf397cc0	-0.7245598
159	0x3f0434da	0.51643145
160	0xbebd22e1	-0.36940673
161	0xbf13e638	-0.5777316
162	0x3e309b57	0.17246757
163	0x3fb93491	1.4469167
164	0x3d0c24d6	0.034214817
165	0xbdb40a34	-0.087910086
166	0x3dcaf7cc	0.09910545
167	0x3fa8eebc	1.3197856
168	0xbea62bbb	-0.3245524
169	0x3f5f11d3	0.8713657
170	0x3eed80a5	0.4638721
171	0xbf8f9d6a	-1.1219914
172	0x3f51137c	0.81670356
173	0x3ea56a9d	0.32307902
174	0xbf5ab4a5	-0.8543189
175	0x3f139889	0.57654625
176	0x3f88ff21	1.0702859
177	0x3f79c9af	0.9757337
178	0x3ec5ef9c	0.3865937
179	0xbebcd844	-0.36883748
180	0xbf5c282a	-0.85998785
181	0x3f451d47	0.769978
182	0xbf862261	-1.0479242
183	0xbfed6f63	-1.8549618
184	0x3dd81573	0.10550966
185	0xbf2ce7b5	-0.67541057
186	0x3e358add	0.17728753
187	0x3e0b11e0	0.13581038
188	0x3f66d141	0.90163046
189	0x3e60025d	0.21875902
190	0xbea69c5b	-0.32541165
191	0x3f0267ef	0.5093984
192	0x3ea10c3e	0.31454653
193	0x3f96f014	1.1792016
194	0x3ee81052	0.4532495
195	0x3de329d5	0.11091963
196	0x3e1814e1	0.14851715
197	0x3d665977	0.056237664
198	0x3eac78e1	0.33685973
199	0x3e8869c8	0.26643205
200	0xbeef34ac	-0.46719873
201	0x3f08a497	0.53376144
202	0xbebacb92	-0.36483437
203	0x3fb85da4	1.4403577
204	0x3ea1e8c5	0.31622902
205	0x3f0ae7a7	0.54259723
206	0x3ede3e61	0.43406966
207	0xbdbf385c	-0.093369216
208	0xbe50e948	-0.2040149
209	0x3f0c9102	0.54908764
210	0xbe984b33	-0.29744872
211	0xbee3adad	-0.44468442
212	0x3f1a40d3	0.60255164
213	0x3f55dcd3	0.83540076
214	0x3c930ae2	0.017949525
215	0x3c0bcbc8	0.008532472
216	0xbe84c7e5	-0.25933757
217	0x3ed04c39	0.40683153
218	0x3d7cdcad	0.06173389
219	0xbee7fe55	-0.45311227
220	0x3dca2649	0.098705836
221	0xbc9ef326	-0.019403052
222	0xbf44b6c4	-0.7684138
223	0x3e8a8f5f	0.27062508
224	0xbdb280d8	-0.08715981
225	0x3e17e8f0	0.14834952
226	0x3eb69f40	0.35668373
227	0x3fa671ae	1.3003442
228	0x3e7da407	0.24769603
229	0xbefdd2b7	-0.49574825
230	0x3dfe9006	0.12429814
231	0xbf8bba9e	-1.0916326
232	0x3edf6554	0.43631995
233	0x3f40cecc	0.75315547
234	0x3d302045	0.042999525
235	0x3e5386fd	0.20656963
236	0x3fd276ab	1.6442465
237	0xbde94430	-0.11389959
238	0xbe9a6bf2	-0.3016048
239	0x3e7633a0	0.24043131
240	0xbe19536e	-0.14973232
241	0x3f5dd75e	0.8665675
242	0x3e04c8ff	0.12967299
243	0x3eb6304b	0.3558372
244	0xbf4fbc9a	-0.8114716
245	0xbe362b7e	-0.17790028
246	0xbf3d5cef	-0.7396993
247	0xbfca01b1	-1.5781766
248	0x3e453b85	0.19260986
249	0xbf1c3b90	-0.61028385
250	0xbe86173e	-0.26189607
251	0xbf312e36	-0.6921114
252	0x3f9daeb8	1.2318945
253	0x3d448542	0.047978647
254	0xbf02074b	-0.5079238
255	0x3e968ac7	0.29402754

fc2.bias f4 [64]
0	0x3f0674f6	0.5252222
1	0xbe2bf131	-0.16791226
2	0xbde9c487	-0.11414438
3	0x3e65b6e4	0.22433048
4	0x3dbd8a52	0.09254898
5	0xbd942fcb	-0.07235678
6	0xbd157859	-0.036491726
7	0xbd9a0117	-0.07519739
8	0x3ec27438	0.37979293
9	0xbdcf4e8c	-0.101224035
10	0x3cd22110	0.025650531
11	0xbe0d3f76	-0.1379374
12	0xbe1f25db	-0.15541784
13	0xbe754f82	-0.23956111
14	0x3e2e1f99	0.17004241
15	0x3f9546aa	1.166219
16	0xbd8888ee	-0.06666742
17	0x3e26dc87	0.16295062
18	0x3e47ef93	0.19524984
19	0x3d018258	0.031618446
20	0x3d142cfa	0.036175705
21	0x3f523579	0.8211284
22	0x3e79cee6	0.24395332
23	0xbe632579	-0.22182263
24	0xbdc8c6b8	-0.098035276
25	0xbe16d9f1	-0.14731576
26	0xbd9bd1e6	-0.07608394
27	0xbded4759	-0.11585874
28	0x3e568ff3	0.2095335
29	0xbe16969c	-0.1470589
30	0x3dfc947a	0.12333007
31	0x3e81089f	0.2520189
32	0xbd1b0403	-0.037845623
33	0x3f6f15bc	0.9339254
34	0xbd20144a	-0.03908185
35	0xbdf93029	-0.12167389
36	0xbcc95e9b	-0.024581244
37	0xbdf9eeb3	-0.122037314
38	0xbe1ad0a8	-0.15118659
39	0xbe29e07d	-0.16589542
40	0xbd25c419	-0.040470216
41	0x3e504fc3	0.20342927
42	0x3dcd7b85	0.10033325
43	0x3d083c3e	0.033260576
44	0xbdece9d2	-0.11568035
45	0x3da7f60f	0.08201229
46	0x3e54f1a2	0.207953
47	0xbe245c98	-0.16050947
48	0x3d6ee81b	0.05832682
49	0x3e8118c1	0.25214198
50	0xbdd47941	-0.1037469
51	0xbde40d41	-0.111353405
52	0x3fa388be	1.2776105
53	0x3e9c3263	0.30507192
54	0x3eb6a8ca	0.3567565
55	0x3f286adc	0.65788054
56	0x3ef545cb	0.4790481
57	0x3dca96bd	0.09892032
58	0x3d79de27	0.061002877
59	0x3c867700	0.016414165
60	0x3d703381	0.058642868
61	0xbe16875c	-0.14700073
62	0x3f31e7e8	0.69494486
63	0x3c156757	0.009118876

fc3.weight f4 [4, 64]
0	0xbefe5c86	-0.49679965
1	0x3cafb606	0.0214491
2	0xbfe59047	-1.7934655
3	0xbebdf35d	-0.37099734
4	0xbf47803e	-0.7793006
5	0xbf11cbb3	-0.56951445
6	0x3d775687	0.060385253
7	0xbdf02de0	-0.117275
8	0x3fcabada	1.5838273
9	0x3d1d0a4c	0.038339898
10	0xbf01575c	-0.50523925
11	0xbd44cc98	-0.04804668
12	0xbf579a59	-0.8421989
13	0xbea49fef	-0.3215327
14	0xbfc2436a	-1.5176823
15	0x3fe607bf	1.7971114
16	0xbe43a199	-0.19104613
17	0xbec229f9	-0.37922648
18	0xbff2ddda	-1.8973954
19	0xbef977b3	-0.48724136
20	0xbf5e830b	-0.86918706
21	0x3f826c15	1.0189234
22	0x3f76329f	0.9617099
23	0x3f098e02	0.5373231
24	0xbf48b201	-0.7839661
25	0x3dce44ba	0.10071702
26	0xbea2179b	-0.31658635
27	0xbf8064db	-1.0030779
28	0xbf40d243	-0.75320834
29	0xbf92c1ed	-1.1465431
30	0xbebbac7c	-0.36655033
31	0xc008ecfa	-2.139464
32	0xbf75f08f	-0.9607019
33	0x3ef5ef10	0.48033953
34	0xbf4e1204	-0.8049624
35	0xbddc4068	-0.10754472
36	0xbd8d5615	-0.069011845
37	0xbe09734d	-0.1342289
38	0xbf2e2b1c	-0.6803453
39	0xbf830760	-1.0236626
40	0xbf284d46	-0.6574291
41	0xbf5211cc	-0.82058406
42	0xbfbe29ef	-1.4856547
43	0xbfaf5d1d	-1.3700291
44	0x3d64a94c	0.055825517
45	0xbc8a0dd5	-0.016852299
46	0xbef6bbef	-0.48190257
47	0xbee10169	-0.43946388
48	0xbf453465	-0.7703307
49	0x3f8268b5	1.0188204
50	0xbefa5d93	-0.48899516
51	0xbf5d0399	-0.86333615
52	0x3fdf1f95	1.7431513
53	0xc0106a2c	-2.2564802
54	0xbfe91a35	-1.8211123
55	0x4018278c	2.3774137
56	0x3fe8c523	1.8185161
57	0xbf7d4b3a	-0.9894291
58	0xbf92554c	-1.143228
59	0xbf23474f	-0.63780683
60	0xc00c628b	-2.1935146
61	0xbf1053a9	-0.56377655
62	0xbf772609	-0.9654241
63	0xbf5ca322	-0.8618642
64	0xbe9522c2	-0.2912808
65	0x3c430d8b	0.011905084
66	0xbf263285	-0.64920837
67	0xbfd68146	-1.6758201
68	0xbf6131fe	-0.8796691
69	0xbf4a0a25	-0.7892173
70	0x3c2ec168	0.010666229
71	0xbf45698b	-0.7711417
72	0x3f99a170	1.2002392
73	0xbd837998	-0.064196765
74	0xbf52d2e6	-0.82353055
75	0xbd76175c	-0.06008087
76	0xbf0cac8c	-0.54950786
77	0xbf1e1a5d	-0.6175898
78	0xbe8f783f	-0.28021428
79	0x3fdae7e1	1.7102014
80	0xbf22d4aa	-0.6360575
81	0xc01113c2	-2.266831
82	0xbffcb648	-1.9743128
83	0xbf4315ad	-0.7620495
84	0xbf4291fd	-0.7600401
85	0x3f845db1	1.0341092
86	0x3fa2b80b	1.2712415
87	0xbf022771	-0.5084143
88	0xbf62f2df	-0.8865184
89	0x3d8f7c68	0.070061505
90	0xbff802a2	-1.9375803
91	0xbf307bd4	-0.68938947
92	0xbfb03e45	-1.3769003
93	0xbf08cd16	-0.53437936
94	0xbfa05362	-1.2525446
95	0xbf2a69ac	-0.6656749
96	0xbf73dba4	-0.9525702
97	0x3efb8abd	0.49129286
98	0xbf228024	-0.6347678
99	0x3ddf71c7	0.10910373
100	0xbf41d181	-0.757103
101	0xbf34c2e3	-0.70609874
102	0xbf6aa1ac	-0.9165294
103	0xbf528259	-0.82230145
104	0xbf69c8b9	-0.91321903
105	0xbd970cb0	-0.07375467
106	0xbfae2f9f	-1.3608283
107	0xbea4abfb	-0.3216246
108	0xbd1126f5	-0.035437543
109	0x3c2f1a60	0.010687441
110	0xbf921691	-1.1413137
111	0xbf1ea863	-0.6197569
112	0xbf4705f0	-0.77743435
113	0xbf1b4135	-0.60646373
114	0xbf14c788	-0.5811696
115	0xbef2a089	-0.47388104
116	0x3fd8d0b4	1.6938691
117	0xbe705bc9	-0.23472513
118	0xc0050d89	-2.0789511
119	0x401f6b0d	2.4909089
120	0x40019492	2.024693
121	0xbf12d68a	-0.5735861
122	0xbf06a6de	-0.5259837
123	0xbf91cce5	-1.1390654
124	0xbf112b5a	-0.56706774
125	0xbf1b4900	-0.60658264
126	0xbf78fd66	-0.97261655
127	0xbf456a90	-0.77115726
128	0xbfaca77a	-1.348861
129	0xbdb49340	-0.08817148
130	0xbee963bf	-0.45583913
131	0xbe873093	-0.26404247
132	0xbf36ec84	-0.71454644
133	0xbf2d9fe2	-0.67822087
134	0x3d0627df	0.032752868
135	0xbea525e3	-0.32255468
136	0x3fe1fefa	1.7655938
137	0x3d98ddaa	0.07464154
138	0xbf3dacd7	-0.7409186
139	0x3cca5139	0.024696933
140	0xbf080341	-0.53129965
141	0xbeb4ab66	-0.35287017
142	0xbf719546	-0.943684
143	0x3fdaf95e	1.7107351
144	0xbe460f11	-0.19341685
145	0xc07a86b6	-3.914472
146	0xc0072d0d	-2.1121247
147	0xbf650031	-0.8945342
148	0xbf434e45	-0.76291305
149	0x3fba9e42	1.4579546
150	0xc01f8d7b	-2.4930103
151	0x3ea3480b	0.31890902
152	0xbf4e3d13	-0.8056194
153	0x3d9d8733	0.07691803
154	0xbf9ff889	-1.2497722
155	0xbf843394	-1.032824
156	0xbf2e9d09	-0.68208367
157	0xbf12ead3	-0.57389563
158	0xbf2906c9	-0.6602598
159	0xbea95da5	-0.33079258
160	0xbf18e254	-0.5972035
161	0x3f883314	1.0640588
162	0xbf45c06b	-0.7724673
163	0xbd4f3290	-0.05058533
164	0xbf9132e4	-1.1343656
165	0xbecff6f7	-0.40618107
166	0xbf3086d9	-0.6895576
167	0xbe850431	-0.2597976
168	0xbf606f78	-0.8767009
169	0xbf6ed053	-0.9328663
170	0xbf86b74f	-1.0524691
171	0xbf3b0ce3	-0.7306654
172	0x3d1b954e	0.037984185
173	0xbb4dfac0	-0.0031429976
174	0xbfa5d43d	-1.2955395
175	0xbf3eee7b	-0.7458264
176	0xbf83e2e3	-1.0303615
177	0xbf8b7544	-1.0895162
178	0xbf04fe41	-0.5195046
179	0xbf7bdc3c	-0.98382926
180	0x3fd0e3cc	1.6319518
181	0xbf6b8b68	-0.9200959
182	0xc004ab36	-2.07295
183	0x3fe97bd7	1.8240918
184	0x3fcdaa2f	1.6067561
185	0xbf8aa4d5	-1.0831553
186	0xbf5d3b3b	-0.86418504
187	0xbf2fe73e	-0.6871222
188	0xbf0de9d3	-0.5543491
189	0xbf77dee3	-0.96824473
190	0xbff14ad8	-1.8850965
191	0xbf44adb3	-0.76827544
192	0xbf5d8a5f	-0.8653926
193	0x3d878966	0.066180035
194	0xbf87ccb6	-1.0609348
195	0xbef148cf	-0.4712586
196	0xbf94be8d	-1.1620651
197	0xbf1886f6	-0.59580934
198	0x3d18c1e1	0.037294272
199	0xbede2298	-0.43385768
200	0x3fe111d2	1.7583563
201	0xbd33bcf0	-0.043881357
202	0xbed3a923	-0.4133998
203	0x3bcb797e	0.0062095514
204	0xbf14d72c	-0.58140826
205	0xbf0904b4	-0.535228
206	0xbf57256f	-0.84041494
207	0x3fe54f0f	1.7914752
208	0xbf1cab24	-0.6119864
209	0x3f75ac38	0.9596591
210	0xbfb1a09d	-1.387714
211	0xbf2d0344	-0.6758311
212	0xbf90b978	-1.13066
213	0x3f6e583c	0.93103385
214	0xbe9f6c8a	-0.31137496
215	0x3ff28f52	1.8949988
216	0xbf33e5a3	-0.7027227
217	0x3dbe1250	0.092808366
218	0xbf6f2992	-0.93422806
219	0xbf2221d4	-0.6333287
220	0xbead70e5	-0.33875194
221	0xbf328ac5	-0.69742996
222	0xbf434b32	-0.76286614
223	0xbf9e84d4	-1.2384286
224	0xbf04af4c	-0.5182998
225	0x3f49724c	0.7869003
226	0xbf951fb5	-1.1650301
227	0xbd9b61a4	-0.07586983
228	0xbf3e9098	-0.7443938
229	0xbec05b17	-0.37569496
230	0xbf3de8ac	-0.74183154
231	0xbf2410f4	-0.6408837
232	0xbf2f23ea	-0.68414176
233	0xbf83bb38	-1.029151
234	0xbfce73f4	-1.6129136
235	0xbfb8f6e4	-1.4450345
236	0x3ddecd27	0.108789735
237	0xbdf36490	-0.11884415
238	0xbfbcd213	-1.475161
239	0xbec9cde3	-0.39414892
240	0xbf21b57f	-0.63167566
241	0x3db2d575	0.0873212
242	0xbf39db25	-0.72600013
243	0xbfafd2a2	-1.3736155
244	0x3fe5eb84	1.7962499
245	0xbe1d5d97	-0.15367733
246	0xbfdc5b56	-1.7215374
247	0x3fe74b6f	1.8069896
248	0x4013fb03	2.3121955
249	0xbed3dbfa	-0.41378766
250	0xbf8123fe	-1.0089109
251	0xbf4fb61e	-0.81137264
252	0xbfababfc	-1.341186
253	0xbf26d19a	-0.65163577
254	0xbf6b9517	-0.9202437
255	0xbf2badd9	-0.67062145

fc3.bias f4 [4]
0	0x3e198ad2	0.14994362
1	0x3d25df39	0.040496085
2	0x3f0e772f	0.5565061
3	0x3eec9508	0.46207452
